layer {
  name: "data"
  type: "ImageData"
  top: "data"
  top: "label"
  include {
    phase: TEST
  }
  transform_param {
    scale: 0.0170000009239
    mirror: false
    crop_size: 224
    mean_value: 103.940002441
    mean_value: 116.779998779
    mean_value: 123.680000305
  }
  image_data_param {
    source: "data/ilsvrc12/img_val.txt"
    batch_size: 100
    new_height: 256
    new_width: 256
  }
}
layer {
  name: "conv_1"
  type: "Convolution"
  bottom: "data"
  top: "conv_1"
  param {
    lr_mult: 1.0
    decay_mult: 1.0
  }
  convolution_param {
    num_output: 32
    bias_term: false
    pad: 1
    kernel_size: 3
    stride: 2
    weight_filler {
      type: "msra"
    }
  }
}
layer {
  name: "bn_1"
  type: "BatchNorm"
  bottom: "conv_1"
  top: "conv_1"
  param {
    lr_mult: 0.0
    decay_mult: 0.0
  }
  param {
    lr_mult: 0.0
    decay_mult: 0.0
  }
  param {
    lr_mult: 0.0
    decay_mult: 0.0
  }
  batch_norm_param {
    use_global_stats: true
  }
}
layer {
  name: "scale_1"
  type: "Scale"
  bottom: "conv_1"
  top: "conv_1"
  scale_param {
    filler {
      value: 1.0
    }
    bias_term: true
    bias_filler {
      value: 0.0
    }
  }
}
layer {
  name: "relu_1"
  type: "ReLU"
  bottom: "conv_1"
  top: "conv_1"
}
layer {
  name: "conv_2_1/dw"
  type: "Convolution"
  bottom: "conv_1"
  top: "conv_2_1/dw"
  param {
    lr_mult: 1.0
    decay_mult: 1.0
  }
  convolution_param {
    num_output: 32
    bias_term: false
    pad: 1
    kernel_size: 3
    group: 32
    stride: 1
    weight_filler {
      type: "msra"
    }
    engine: CAFFE
  }
}
layer {
  name: "conv_2_1/dw/bn"
  type: "BatchNorm"
  bottom: "conv_2_1/dw"
  top: "conv_2_1/dw"
  param {
    lr_mult: 0.0
    decay_mult: 0.0
  }
  param {
    lr_mult: 0.0
    decay_mult: 0.0
  }
  param {
    lr_mult: 0.0
    decay_mult: 0.0
  }
  batch_norm_param {
    use_global_stats: true
  }
}
layer {
  name: "conv_2_1/dw/scale"
  type: "Scale"
  bottom: "conv_2_1/dw"
  top: "conv_2_1/dw"
  scale_param {
    filler {
      value: 1.0
    }
    bias_term: true
    bias_filler {
      value: 0.0
    }
  }
}
layer {
  name: "relu_2_1/dw"
  type: "ReLU"
  bottom: "conv_2_1/dw"
  top: "conv_2_1/dw"
}
layer {
  name: "conv_2_1/sep"
  type: "Convolution"
  bottom: "conv_2_1/dw"
  top: "conv_2_1/sep"
  param {
    lr_mult: 1.0
    decay_mult: 1.0
  }
  convolution_param {
    num_output: 64
    bias_term: false
    pad: 0
    kernel_size: 1
    stride: 1
    weight_filler {
      type: "msra"
    }
  }
}
layer {
  name: "conv_2_1/sep/bn"
  type: "BatchNorm"
  bottom: "conv_2_1/sep"
  top: "conv_2_1/sep"
  param {
    lr_mult: 0.0
    decay_mult: 0.0
  }
  param {
    lr_mult: 0.0
    decay_mult: 0.0
  }
  param {
    lr_mult: 0.0
    decay_mult: 0.0
  }
  batch_norm_param {
    use_global_stats: true
  }
}
layer {
  name: "conv_2_1/sep/scale"
  type: "Scale"
  bottom: "conv_2_1/sep"
  top: "conv_2_1/sep"
  scale_param {
    filler {
      value: 1.0
    }
    bias_term: true
    bias_filler {
      value: 0.0
    }
  }
}
layer {
  name: "relu_2_1/sep"
  type: "ReLU"
  bottom: "conv_2_1/sep"
  top: "conv_2_1/sep"
}
layer {
  name: "conv_2_2/dw"
  type: "Convolution"
  bottom: "conv_2_1/sep"
  top: "conv_2_2/dw"
  param {
    lr_mult: 1.0
    decay_mult: 1.0
  }
  convolution_param {
    num_output: 64
    bias_term: false
    pad: 1
    kernel_size: 3
    group: 64
    stride: 2
    weight_filler {
      type: "msra"
    }
    engine: CAFFE
  }
}
layer {
  name: "conv_2_2/dw/bn"
  type: "BatchNorm"
  bottom: "conv_2_2/dw"
  top: "conv_2_2/dw"
  param {
    lr_mult: 0.0
    decay_mult: 0.0
  }
  param {
    lr_mult: 0.0
    decay_mult: 0.0
  }
  param {
    lr_mult: 0.0
    decay_mult: 0.0
  }
  batch_norm_param {
    use_global_stats: true
  }
}
layer {
  name: "conv_2_2/dw/scale"
  type: "Scale"
  bottom: "conv_2_2/dw"
  top: "conv_2_2/dw"
  scale_param {
    filler {
      value: 1.0
    }
    bias_term: true
    bias_filler {
      value: 0.0
    }
  }
}
layer {
  name: "relu_2_2/dw"
  type: "ReLU"
  bottom: "conv_2_2/dw"
  top: "conv_2_2/dw"
}
layer {
  name: "conv_2_2/sep"
  type: "Convolution"
  bottom: "conv_2_2/dw"
  top: "conv_2_2/sep"
  param {
    lr_mult: 1.0
    decay_mult: 1.0
  }
  convolution_param {
    num_output: 128
    bias_term: false
    pad: 0
    kernel_size: 1
    stride: 1
    weight_filler {
      type: "msra"
    }
  }
}
layer {
  name: "conv_2_2/sep/bn"
  type: "BatchNorm"
  bottom: "conv_2_2/sep"
  top: "conv_2_2/sep"
  param {
    lr_mult: 0.0
    decay_mult: 0.0
  }
  param {
    lr_mult: 0.0
    decay_mult: 0.0
  }
  param {
    lr_mult: 0.0
    decay_mult: 0.0
  }
  batch_norm_param {
    use_global_stats: true
  }
}
layer {
  name: "conv_2_2/sep/scale"
  type: "Scale"
  bottom: "conv_2_2/sep"
  top: "conv_2_2/sep"
  scale_param {
    filler {
      value: 1.0
    }
    bias_term: true
    bias_filler {
      value: 0.0
    }
  }
}
layer {
  name: "relu_2_2/sep"
  type: "ReLU"
  bottom: "conv_2_2/sep"
  top: "conv_2_2/sep"
}
layer {
  name: "conv_3_1/dw"
  type: "Convolution"
  bottom: "conv_2_2/sep"
  top: "conv_3_1/dw"
  param {
    lr_mult: 1.0
    decay_mult: 1.0
  }
  convolution_param {
    num_output: 128
    bias_term: false
    pad: 1
    kernel_size: 3
    group: 128
    stride: 1
    weight_filler {
      type: "msra"
    }
    engine: CAFFE
  }
}
layer {
  name: "conv_3_1/dw/bn"
  type: "BatchNorm"
  bottom: "conv_3_1/dw"
  top: "conv_3_1/dw"
  param {
    lr_mult: 0.0
    decay_mult: 0.0
  }
  param {
    lr_mult: 0.0
    decay_mult: 0.0
  }
  param {
    lr_mult: 0.0
    decay_mult: 0.0
  }
  batch_norm_param {
    use_global_stats: true
  }
}
layer {
  name: "conv_3_1/dw/scale"
  type: "Scale"
  bottom: "conv_3_1/dw"
  top: "conv_3_1/dw"
  scale_param {
    filler {
      value: 1.0
    }
    bias_term: true
    bias_filler {
      value: 0.0
    }
  }
}
layer {
  name: "relu_3_1/dw"
  type: "ReLU"
  bottom: "conv_3_1/dw"
  top: "conv_3_1/dw"
}
layer {
  name: "conv_3_1/sep"
  type: "Convolution"
  bottom: "conv_3_1/dw"
  top: "conv_3_1/sep"
  param {
    lr_mult: 1.0
    decay_mult: 1.0
  }
  convolution_param {
    num_output: 128
    bias_term: false
    pad: 0
    kernel_size: 1
    stride: 1
    weight_filler {
      type: "msra"
    }
  }
}
layer {
  name: "conv_3_1/sep/bn"
  type: "BatchNorm"
  bottom: "conv_3_1/sep"
  top: "conv_3_1/sep"
  param {
    lr_mult: 0.0
    decay_mult: 0.0
  }
  param {
    lr_mult: 0.0
    decay_mult: 0.0
  }
  param {
    lr_mult: 0.0
    decay_mult: 0.0
  }
  batch_norm_param {
    use_global_stats: true
  }
}
layer {
  name: "conv_3_1/sep/scale"
  type: "Scale"
  bottom: "conv_3_1/sep"
  top: "conv_3_1/sep"
  scale_param {
    filler {
      value: 1.0
    }
    bias_term: true
    bias_filler {
      value: 0.0
    }
  }
}
layer {
  name: "relu_3_1/sep"
  type: "ReLU"
  bottom: "conv_3_1/sep"
  top: "conv_3_1/sep"
}
layer {
  name: "conv_3_2/dw"
  type: "Convolution"
  bottom: "conv_3_1/sep"
  top: "conv_3_2/dw"
  param {
    lr_mult: 1.0
    decay_mult: 1.0
  }
  convolution_param {
    num_output: 128
    bias_term: false
    pad: 1
    kernel_size: 3
    group: 128
    stride: 2
    weight_filler {
      type: "msra"
    }
    engine: CAFFE
  }
}
layer {
  name: "conv_3_2/dw/bn"
  type: "BatchNorm"
  bottom: "conv_3_2/dw"
  top: "conv_3_2/dw"
  param {
    lr_mult: 0.0
    decay_mult: 0.0
  }
  param {
    lr_mult: 0.0
    decay_mult: 0.0
  }
  param {
    lr_mult: 0.0
    decay_mult: 0.0
  }
  batch_norm_param {
    use_global_stats: true
  }
}
layer {
  name: "conv_3_2/dw/scale"
  type: "Scale"
  bottom: "conv_3_2/dw"
  top: "conv_3_2/dw"
  scale_param {
    filler {
      value: 1.0
    }
    bias_term: true
    bias_filler {
      value: 0.0
    }
  }
}
layer {
  name: "relu_3_2/dw"
  type: "ReLU"
  bottom: "conv_3_2/dw"
  top: "conv_3_2/dw"
}
layer {
  name: "conv_3_2/sep"
  type: "Convolution"
  bottom: "conv_3_2/dw"
  top: "conv_3_2/sep"
  param {
    lr_mult: 1.0
    decay_mult: 1.0
  }
  convolution_param {
    num_output: 256
    bias_term: false
    pad: 0
    kernel_size: 1
    stride: 1
    weight_filler {
      type: "msra"
    }
  }
}
layer {
  name: "conv_3_2/sep/bn"
  type: "BatchNorm"
  bottom: "conv_3_2/sep"
  top: "conv_3_2/sep"
  param {
    lr_mult: 0.0
    decay_mult: 0.0
  }
  param {
    lr_mult: 0.0
    decay_mult: 0.0
  }
  param {
    lr_mult: 0.0
    decay_mult: 0.0
  }
  batch_norm_param {
    use_global_stats: true
  }
}
layer {
  name: "conv_3_2/sep/scale"
  type: "Scale"
  bottom: "conv_3_2/sep"
  top: "conv_3_2/sep"
  scale_param {
    filler {
      value: 1.0
    }
    bias_term: true
    bias_filler {
      value: 0.0
    }
  }
}
layer {
  name: "relu_3_2/sep"
  type: "ReLU"
  bottom: "conv_3_2/sep"
  top: "conv_3_2/sep"
}
layer {
  name: "conv_4_1/dw"
  type: "Convolution"
  bottom: "conv_3_2/sep"
  top: "conv_4_1/dw"
  param {
    lr_mult: 1.0
    decay_mult: 1.0
  }
  convolution_param {
    num_output: 256
    bias_term: false
    pad: 1
    kernel_size: 3
    group: 256
    stride: 1
    weight_filler {
      type: "msra"
    }
    engine: CAFFE
  }
}
layer {
  name: "conv_4_1/dw/bn"
  type: "BatchNorm"
  bottom: "conv_4_1/dw"
  top: "conv_4_1/dw"
  param {
    lr_mult: 0.0
    decay_mult: 0.0
  }
  param {
    lr_mult: 0.0
    decay_mult: 0.0
  }
  param {
    lr_mult: 0.0
    decay_mult: 0.0
  }
  batch_norm_param {
    use_global_stats: true
  }
}
layer {
  name: "conv_4_1/dw/scale"
  type: "Scale"
  bottom: "conv_4_1/dw"
  top: "conv_4_1/dw"
  scale_param {
    filler {
      value: 1.0
    }
    bias_term: true
    bias_filler {
      value: 0.0
    }
  }
}
layer {
  name: "relu_4_1/dw"
  type: "ReLU"
  bottom: "conv_4_1/dw"
  top: "conv_4_1/dw"
}
layer {
  name: "conv_4_1/sep"
  type: "Convolution"
  bottom: "conv_4_1/dw"
  top: "conv_4_1/sep"
  param {
    lr_mult: 1.0
    decay_mult: 1.0
  }
  convolution_param {
    num_output: 256
    bias_term: false
    pad: 0
    kernel_size: 1
    stride: 1
    weight_filler {
      type: "msra"
    }
  }
}
layer {
  name: "conv_4_1/sep/bn"
  type: "BatchNorm"
  bottom: "conv_4_1/sep"
  top: "conv_4_1/sep"
  param {
    lr_mult: 0.0
    decay_mult: 0.0
  }
  param {
    lr_mult: 0.0
    decay_mult: 0.0
  }
  param {
    lr_mult: 0.0
    decay_mult: 0.0
  }
  batch_norm_param {
    use_global_stats: true
  }
}
layer {
  name: "conv_4_1/sep/scale"
  type: "Scale"
  bottom: "conv_4_1/sep"
  top: "conv_4_1/sep"
  scale_param {
    filler {
      value: 1.0
    }
    bias_term: true
    bias_filler {
      value: 0.0
    }
  }
}
layer {
  name: "relu_4_1/sep"
  type: "ReLU"
  bottom: "conv_4_1/sep"
  top: "conv_4_1/sep"
}
layer {
  name: "conv_4_2/dw"
  type: "Convolution"
  bottom: "conv_4_1/sep"
  top: "conv_4_2/dw"
  param {
    lr_mult: 1.0
    decay_mult: 1.0
  }
  convolution_param {
    num_output: 256
    bias_term: false
    pad: 1
    kernel_size: 3
    group: 256
    stride: 2
    weight_filler {
      type: "msra"
    }
    engine: CAFFE
  }
}
layer {
  name: "conv_4_2/dw/bn"
  type: "BatchNorm"
  bottom: "conv_4_2/dw"
  top: "conv_4_2/dw"
  param {
    lr_mult: 0.0
    decay_mult: 0.0
  }
  param {
    lr_mult: 0.0
    decay_mult: 0.0
  }
  param {
    lr_mult: 0.0
    decay_mult: 0.0
  }
  batch_norm_param {
    use_global_stats: true
  }
}
layer {
  name: "conv_4_2/dw/scale"
  type: "Scale"
  bottom: "conv_4_2/dw"
  top: "conv_4_2/dw"
  scale_param {
    filler {
      value: 1.0
    }
    bias_term: true
    bias_filler {
      value: 0.0
    }
  }
}
layer {
  name: "relu_4_2/dw"
  type: "ReLU"
  bottom: "conv_4_2/dw"
  top: "conv_4_2/dw"
}
layer {
  name: "conv_4_2/sep"
  type: "Convolution"
  bottom: "conv_4_2/dw"
  top: "conv_4_2/sep"
  param {
    lr_mult: 1.0
    decay_mult: 1.0
  }
  convolution_param {
    num_output: 512
    bias_term: false
    pad: 0
    kernel_size: 1
    stride: 1
    weight_filler {
      type: "msra"
    }
  }
}
layer {
  name: "conv_4_2/sep/bn"
  type: "BatchNorm"
  bottom: "conv_4_2/sep"
  top: "conv_4_2/sep"
  param {
    lr_mult: 0.0
    decay_mult: 0.0
  }
  param {
    lr_mult: 0.0
    decay_mult: 0.0
  }
  param {
    lr_mult: 0.0
    decay_mult: 0.0
  }
  batch_norm_param {
    use_global_stats: true
  }
}
layer {
  name: "conv_4_2/sep/scale"
  type: "Scale"
  bottom: "conv_4_2/sep"
  top: "conv_4_2/sep"
  scale_param {
    filler {
      value: 1.0
    }
    bias_term: true
    bias_filler {
      value: 0.0
    }
  }
}
layer {
  name: "relu_4_2/sep"
  type: "ReLU"
  bottom: "conv_4_2/sep"
  top: "conv_4_2/sep"
}
layer {
  name: "conv_5_1/dw"
  type: "Convolution"
  bottom: "conv_4_2/sep"
  top: "conv_5_1/dw"
  param {
    lr_mult: 1.0
    decay_mult: 1.0
  }
  convolution_param {
    num_output: 512
    bias_term: false
    pad: 1
    kernel_size: 3
    group: 512
    stride: 1
    weight_filler {
      type: "msra"
    }
    engine: CAFFE
  }
}
layer {
  name: "conv_5_1/dw/bn"
  type: "BatchNorm"
  bottom: "conv_5_1/dw"
  top: "conv_5_1/dw"
  param {
    lr_mult: 0.0
    decay_mult: 0.0
  }
  param {
    lr_mult: 0.0
    decay_mult: 0.0
  }
  param {
    lr_mult: 0.0
    decay_mult: 0.0
  }
  batch_norm_param {
    use_global_stats: true
  }
}
layer {
  name: "conv_5_1/dw/scale"
  type: "Scale"
  bottom: "conv_5_1/dw"
  top: "conv_5_1/dw"
  scale_param {
    filler {
      value: 1.0
    }
    bias_term: true
    bias_filler {
      value: 0.0
    }
  }
}
layer {
  name: "relu_5_1/dw"
  type: "ReLU"
  bottom: "conv_5_1/dw"
  top: "conv_5_1/dw"
}
layer {
  name: "conv_5_1/sep"
  type: "Convolution"
  bottom: "conv_5_1/dw"
  top: "conv_5_1/sep"
  param {
    lr_mult: 1.0
    decay_mult: 1.0
  }
  convolution_param {
    num_output: 512
    bias_term: false
    pad: 0
    kernel_size: 1
    stride: 1
    weight_filler {
      type: "msra"
    }
  }
}
layer {
  name: "conv_5_1/sep/bn"
  type: "BatchNorm"
  bottom: "conv_5_1/sep"
  top: "conv_5_1/sep"
  param {
    lr_mult: 0.0
    decay_mult: 0.0
  }
  param {
    lr_mult: 0.0
    decay_mult: 0.0
  }
  param {
    lr_mult: 0.0
    decay_mult: 0.0
  }
  batch_norm_param {
    use_global_stats: true
  }
}
layer {
  name: "conv_5_1/sep/scale"
  type: "Scale"
  bottom: "conv_5_1/sep"
  top: "conv_5_1/sep"
  scale_param {
    filler {
      value: 1.0
    }
    bias_term: true
    bias_filler {
      value: 0.0
    }
  }
}
layer {
  name: "relu_5_1/sep"
  type: "ReLU"
  bottom: "conv_5_1/sep"
  top: "conv_5_1/sep"
}
layer {
  name: "conv_5_2/dw"
  type: "Convolution"
  bottom: "conv_5_1/sep"
  top: "conv_5_2/dw"
  param {
    lr_mult: 1.0
    decay_mult: 1.0
  }
  convolution_param {
    num_output: 512
    bias_term: false
    pad: 1
    kernel_size: 3
    group: 512
    stride: 1
    weight_filler {
      type: "msra"
    }
    engine: CAFFE
  }
}
layer {
  name: "conv_5_2/dw/bn"
  type: "BatchNorm"
  bottom: "conv_5_2/dw"
  top: "conv_5_2/dw"
  param {
    lr_mult: 0.0
    decay_mult: 0.0
  }
  param {
    lr_mult: 0.0
    decay_mult: 0.0
  }
  param {
    lr_mult: 0.0
    decay_mult: 0.0
  }
  batch_norm_param {
    use_global_stats: true
  }
}
layer {
  name: "conv_5_2/dw/scale"
  type: "Scale"
  bottom: "conv_5_2/dw"
  top: "conv_5_2/dw"
  scale_param {
    filler {
      value: 1.0
    }
    bias_term: true
    bias_filler {
      value: 0.0
    }
  }
}
layer {
  name: "relu_5_2/dw"
  type: "ReLU"
  bottom: "conv_5_2/dw"
  top: "conv_5_2/dw"
}
layer {
  name: "conv_5_2/sep"
  type: "Convolution"
  bottom: "conv_5_2/dw"
  top: "conv_5_2/sep"
  param {
    lr_mult: 1.0
    decay_mult: 1.0
  }
  convolution_param {
    num_output: 512
    bias_term: false
    pad: 0
    kernel_size: 1
    stride: 1
    weight_filler {
      type: "msra"
    }
  }
}
layer {
  name: "conv_5_2/sep/bn"
  type: "BatchNorm"
  bottom: "conv_5_2/sep"
  top: "conv_5_2/sep"
  param {
    lr_mult: 0.0
    decay_mult: 0.0
  }
  param {
    lr_mult: 0.0
    decay_mult: 0.0
  }
  param {
    lr_mult: 0.0
    decay_mult: 0.0
  }
  batch_norm_param {
    use_global_stats: true
  }
}
layer {
  name: "conv_5_2/sep/scale"
  type: "Scale"
  bottom: "conv_5_2/sep"
  top: "conv_5_2/sep"
  scale_param {
    filler {
      value: 1.0
    }
    bias_term: true
    bias_filler {
      value: 0.0
    }
  }
}
layer {
  name: "relu_5_2/sep"
  type: "ReLU"
  bottom: "conv_5_2/sep"
  top: "conv_5_2/sep"
}
layer {
  name: "conv_5_3/dw"
  type: "Convolution"
  bottom: "conv_5_2/sep"
  top: "conv_5_3/dw"
  param {
    lr_mult: 1.0
    decay_mult: 1.0
  }
  convolution_param {
    num_output: 512
    bias_term: false
    pad: 1
    kernel_size: 3
    group: 512
    stride: 1
    weight_filler {
      type: "msra"
    }
    engine: CAFFE
  }
}
layer {
  name: "conv_5_3/dw/bn"
  type: "BatchNorm"
  bottom: "conv_5_3/dw"
  top: "conv_5_3/dw"
  param {
    lr_mult: 0.0
    decay_mult: 0.0
  }
  param {
    lr_mult: 0.0
    decay_mult: 0.0
  }
  param {
    lr_mult: 0.0
    decay_mult: 0.0
  }
  batch_norm_param {
    use_global_stats: true
  }
}
layer {
  name: "conv_5_3/dw/scale"
  type: "Scale"
  bottom: "conv_5_3/dw"
  top: "conv_5_3/dw"
  scale_param {
    filler {
      value: 1.0
    }
    bias_term: true
    bias_filler {
      value: 0.0
    }
  }
}
layer {
  name: "relu_5_3/dw"
  type: "ReLU"
  bottom: "conv_5_3/dw"
  top: "conv_5_3/dw"
}
layer {
  name: "conv_5_3/sep"
  type: "Convolution"
  bottom: "conv_5_3/dw"
  top: "conv_5_3/sep"
  param {
    lr_mult: 1.0
    decay_mult: 1.0
  }
  convolution_param {
    num_output: 512
    bias_term: false
    pad: 0
    kernel_size: 1
    stride: 1
    weight_filler {
      type: "msra"
    }
  }
}
layer {
  name: "conv_5_3/sep/bn"
  type: "BatchNorm"
  bottom: "conv_5_3/sep"
  top: "conv_5_3/sep"
  param {
    lr_mult: 0.0
    decay_mult: 0.0
  }
  param {
    lr_mult: 0.0
    decay_mult: 0.0
  }
  param {
    lr_mult: 0.0
    decay_mult: 0.0
  }
  batch_norm_param {
    use_global_stats: true
  }
}
layer {
  name: "conv_5_3/sep/scale"
  type: "Scale"
  bottom: "conv_5_3/sep"
  top: "conv_5_3/sep"
  scale_param {
    filler {
      value: 1.0
    }
    bias_term: true
    bias_filler {
      value: 0.0
    }
  }
}
layer {
  name: "relu_5_3/sep"
  type: "ReLU"
  bottom: "conv_5_3/sep"
  top: "conv_5_3/sep"
}
layer {
  name: "conv_5_4/dw"
  type: "Convolution"
  bottom: "conv_5_3/sep"
  top: "conv_5_4/dw"
  param {
    lr_mult: 1.0
    decay_mult: 1.0
  }
  convolution_param {
    num_output: 512
    bias_term: false
    pad: 1
    kernel_size: 3
    group: 512
    stride: 1
    weight_filler {
      type: "msra"
    }
    engine: CAFFE
  }
}
layer {
  name: "conv_5_4/dw/bn"
  type: "BatchNorm"
  bottom: "conv_5_4/dw"
  top: "conv_5_4/dw"
  param {
    lr_mult: 0.0
    decay_mult: 0.0
  }
  param {
    lr_mult: 0.0
    decay_mult: 0.0
  }
  param {
    lr_mult: 0.0
    decay_mult: 0.0
  }
  batch_norm_param {
    use_global_stats: true
  }
}
layer {
  name: "conv_5_4/dw/scale"
  type: "Scale"
  bottom: "conv_5_4/dw"
  top: "conv_5_4/dw"
  scale_param {
    filler {
      value: 1.0
    }
    bias_term: true
    bias_filler {
      value: 0.0
    }
  }
}
layer {
  name: "relu_5_4/dw"
  type: "ReLU"
  bottom: "conv_5_4/dw"
  top: "conv_5_4/dw"
}
layer {
  name: "conv_5_4/sep"
  type: "Convolution"
  bottom: "conv_5_4/dw"
  top: "conv_5_4/sep"
  param {
    lr_mult: 1.0
    decay_mult: 1.0
  }
  convolution_param {
    num_output: 512
    bias_term: false
    pad: 0
    kernel_size: 1
    stride: 1
    weight_filler {
      type: "msra"
    }
  }
}
layer {
  name: "conv_5_4/sep/bn"
  type: "BatchNorm"
  bottom: "conv_5_4/sep"
  top: "conv_5_4/sep"
  param {
    lr_mult: 0.0
    decay_mult: 0.0
  }
  param {
    lr_mult: 0.0
    decay_mult: 0.0
  }
  param {
    lr_mult: 0.0
    decay_mult: 0.0
  }
  batch_norm_param {
    use_global_stats: true
  }
}
layer {
  name: "conv_5_4/sep/scale"
  type: "Scale"
  bottom: "conv_5_4/sep"
  top: "conv_5_4/sep"
  scale_param {
    filler {
      value: 1.0
    }
    bias_term: true
    bias_filler {
      value: 0.0
    }
  }
}
layer {
  name: "relu_5_4/sep"
  type: "ReLU"
  bottom: "conv_5_4/sep"
  top: "conv_5_4/sep"
}
layer {
  name: "conv_5_5/dw"
  type: "Convolution"
  bottom: "conv_5_4/sep"
  top: "conv_5_5/dw"
  param {
    lr_mult: 1.0
    decay_mult: 1.0
  }
  convolution_param {
    num_output: 512
    bias_term: false
    pad: 1
    kernel_size: 3
    group: 512
    stride: 1
    weight_filler {
      type: "msra"
    }
    engine: CAFFE
  }
}
layer {
  name: "conv_5_5/dw/bn"
  type: "BatchNorm"
  bottom: "conv_5_5/dw"
  top: "conv_5_5/dw"
  param {
    lr_mult: 0.0
    decay_mult: 0.0
  }
  param {
    lr_mult: 0.0
    decay_mult: 0.0
  }
  param {
    lr_mult: 0.0
    decay_mult: 0.0
  }
  batch_norm_param {
    use_global_stats: true
  }
}
layer {
  name: "conv_5_5/dw/scale"
  type: "Scale"
  bottom: "conv_5_5/dw"
  top: "conv_5_5/dw"
  scale_param {
    filler {
      value: 1.0
    }
    bias_term: true
    bias_filler {
      value: 0.0
    }
  }
}
layer {
  name: "relu_5_5/dw"
  type: "ReLU"
  bottom: "conv_5_5/dw"
  top: "conv_5_5/dw"
}
layer {
  name: "conv_5_5/sep"
  type: "Convolution"
  bottom: "conv_5_5/dw"
  top: "conv_5_5/sep"
  param {
    lr_mult: 1.0
    decay_mult: 1.0
  }
  convolution_param {
    num_output: 512
    bias_term: false
    pad: 0
    kernel_size: 1
    stride: 1
    weight_filler {
      type: "msra"
    }
  }
}
layer {
  name: "conv_5_5/sep/bn"
  type: "BatchNorm"
  bottom: "conv_5_5/sep"
  top: "conv_5_5/sep"
  param {
    lr_mult: 0.0
    decay_mult: 0.0
  }
  param {
    lr_mult: 0.0
    decay_mult: 0.0
  }
  param {
    lr_mult: 0.0
    decay_mult: 0.0
  }
  batch_norm_param {
    use_global_stats: true
  }
}
layer {
  name: "conv_5_5/sep/scale"
  type: "Scale"
  bottom: "conv_5_5/sep"
  top: "conv_5_5/sep"
  scale_param {
    filler {
      value: 1.0
    }
    bias_term: true
    bias_filler {
      value: 0.0
    }
  }
}
layer {
  name: "relu_5_5/sep"
  type: "ReLU"
  bottom: "conv_5_5/sep"
  top: "conv_5_5/sep"
}
layer {
  name: "conv_5_6/dw"
  type: "Convolution"
  bottom: "conv_5_5/sep"
  top: "conv_5_6/dw"
  param {
    lr_mult: 1.0
    decay_mult: 1.0
  }
  convolution_param {
    num_output: 512
    bias_term: false
    pad: 1
    kernel_size: 3
    group: 512
    stride: 1
    weight_filler {
      type: "msra"
    }
    engine: CAFFE
  }
}
layer {
  name: "conv_5_6/dw/bn"
  type: "BatchNorm"
  bottom: "conv_5_6/dw"
  top: "conv_5_6/dw"
  param {
    lr_mult: 0.0
    decay_mult: 0.0
  }
  param {
    lr_mult: 0.0
    decay_mult: 0.0
  }
  param {
    lr_mult: 0.0
    decay_mult: 0.0
  }
  batch_norm_param {
    use_global_stats: true
  }
}
layer {
  name: "conv_5_6/dw/scale"
  type: "Scale"
  bottom: "conv_5_6/dw"
  top: "conv_5_6/dw"
  scale_param {
    filler {
      value: 1.0
    }
    bias_term: true
    bias_filler {
      value: 0.0
    }
  }
}
layer {
  name: "relu_5_6/dw"
  type: "ReLU"
  bottom: "conv_5_6/dw"
  top: "conv_5_6/dw"
}
layer {
  name: "conv_5_6/sep"
  type: "Convolution"
  bottom: "conv_5_6/dw"
  top: "conv_5_6/sep"
  param {
    lr_mult: 1.0
    decay_mult: 1.0
  }
  convolution_param {
    num_output: 1024
    bias_term: false
    pad: 0
    kernel_size: 1
    stride: 1
    weight_filler {
      type: "msra"
    }
  }
}
layer {
  name: "conv_5_6/sep/bn"
  type: "BatchNorm"
  bottom: "conv_5_6/sep"
  top: "conv_5_6/sep"
  param {
    lr_mult: 0.0
    decay_mult: 0.0
  }
  param {
    lr_mult: 0.0
    decay_mult: 0.0
  }
  param {
    lr_mult: 0.0
    decay_mult: 0.0
  }
  batch_norm_param {
    use_global_stats: true
  }
}
layer {
  name: "conv_5_6/sep/scale"
  type: "Scale"
  bottom: "conv_5_6/sep"
  top: "conv_5_6/sep"
  scale_param {
    filler {
      value: 1.0
    }
    bias_term: true
    bias_filler {
      value: 0.0
    }
  }
}
layer {
  name: "relu_5_6/sep"
  type: "ReLU"
  bottom: "conv_5_6/sep"
  top: "conv_5_6/sep"
}
layer {
  name: "conv_6/dw"
  type: "Convolution"
  bottom: "conv_5_6/sep"
  top: "conv_6/dw"
  param {
    lr_mult: 1.0
    decay_mult: 1.0
  }
  convolution_param {
    num_output: 1024
    bias_term: false
    pad: 1
    kernel_size: 3
    group: 1024
    stride: 2
    weight_filler {
      type: "msra"
    }
    engine: CAFFE
  }
}
layer {
  name: "conv_6/dw/bn"
  type: "BatchNorm"
  bottom: "conv_6/dw"
  top: "conv_6/dw"
  param {
    lr_mult: 0.0
    decay_mult: 0.0
  }
  param {
    lr_mult: 0.0
    decay_mult: 0.0
  }
  param {
    lr_mult: 0.0
    decay_mult: 0.0
  }
  batch_norm_param {
    use_global_stats: true
  }
}
layer {
  name: "conv_6/dw/scale"
  type: "Scale"
  bottom: "conv_6/dw"
  top: "conv_6/dw"
  scale_param {
    filler {
      value: 1.0
    }
    bias_term: true
    bias_filler {
      value: 0.0
    }
  }
}
layer {
  name: "relu_6/dw"
  type: "ReLU"
  bottom: "conv_6/dw"
  top: "conv_6/dw"
}
layer {
  name: "conv_6/sep"
  type: "Convolution"
  bottom: "conv_6/dw"
  top: "conv_6/sep"
  param {
    lr_mult: 1.0
    decay_mult: 1.0
  }
  convolution_param {
    num_output: 1024
    bias_term: false
    pad: 0
    kernel_size: 1
    stride: 1
    weight_filler {
      type: "msra"
    }
  }
}
layer {
  name: "conv_6/sep/bn"
  type: "BatchNorm"
  bottom: "conv_6/sep"
  top: "conv_6/sep"
  param {
    lr_mult: 0.0
    decay_mult: 0.0
  }
  param {
    lr_mult: 0.0
    decay_mult: 0.0
  }
  param {
    lr_mult: 0.0
    decay_mult: 0.0
  }
  batch_norm_param {
    use_global_stats: true
  }
}
layer {
  name: "conv_6/sep/scale"
  type: "Scale"
  bottom: "conv_6/sep"
  top: "conv_6/sep"
  scale_param {
    filler {
      value: 1.0
    }
    bias_term: true
    bias_filler {
      value: 0.0
    }
  }
}
layer {
  name: "relu_6/sep"
  type: "ReLU"
  bottom: "conv_6/sep"
  top: "conv_6/sep"
}
layer {
  name: "pool_6"
  type: "Pooling"
  bottom: "conv_6/sep"
  top: "pool_6"
  pooling_param {
    pool: AVE
    global_pooling: true
  }
}
layer {
  name: "fc_7"
  type: "Convolution"
  bottom: "pool_6"
  top: "fc_7"
  param {
    lr_mult: 1.0
    decay_mult: 1.0
  }
  convolution_param {
    num_output: 1000
    kernel_size: 1
    weight_filler {
      type: "msra"
    }
  }
}
layer {
  name: "loss"
  type: "SoftmaxWithLoss"
  bottom: "fc_7"
  bottom: "label"
  top: "loss"
}
layer {
  name: "top1/acc"
  type: "Accuracy"
  bottom: "fc_7"
  bottom: "label"
  top: "top1/acc"
  accuracy_param {
    top_k: 1
  }
}
layer {
  name: "top5/acc"
  type: "Accuracy"
  bottom: "fc_7"
  bottom: "label"
  top: "top5/acc"
  accuracy_param {
    top_k: 5
  }
}

